ML Agents Test/Assets/Material/RollerAgent-215886.onnx (onnx, 82366 bytes, 8 tensors)

network_body._body_endoder.seq_layers.0.weight f4 [128, 12]
000000 90 24 a8 3e 4c 76 65 be c1 ec 12 bd 2f 7b 75 3e
       0.32840395 -0.22408408 -0.035870317 0.23972772
000010 b0 17 37 bf f5 ae 82 3e ac ba 57 3e ad a6 14 3e
       -0.7152052 0.25524107 0.21067303 0.14516707
000020 58 a0 05 be ef 24 a1 3d 1f 6e a2 3d bb 51 d6 3e
       -0.13049448 0.07868373 0.0793116 0.4185923
000030 61 f1 e8 bc 99 fc a1 3d d8 4e aa 3c 46 0b 96 3e
       -0.028435411 0.07909507 0.020789549 0.29305476
000040 e3 59 5a bd 71 49 37 3e f1 6d 37 3e f5 e3 40 3f
       -0.05330838 0.1789911 0.17913033 0.75347835
000050 bd 76 70 3e 1a 91 e7 3d f5 4d 99 be 3c b4 a5 be
       0.23482795 0.11306973 -0.2994229 -0.3236407
000060 09 de 80 3e 3c ae f0 3d df 3b 96 bd 27 fd c1 be
       0.251694 0.117519826 -0.07335638 -0.37888452
000070 60 5a 10 bf 0d e5 15 bd ff 1b 92 3e 30 cb 03 3d
       -0.563879 -0.036595393 0.28536984 0.032176197
000080 90 16 4e be da a4 d3 be a8 80 3c be 84 14 22 be
       -0.20125794 -0.4133671 -0.18408453 -0.15828139
000090 69 6e 44 3e ff 08 da be 03 0d 02 3f c2 fa 6e 3e
       0.19182743 -0.42584988 0.50801104 0.23337844
0000a0 d7 b3 88 bd f2 24 4e 3e bd e2 d9 be b2 b9 94 3e
       -0.06674927 0.20131281 -0.425558 0.29047924
0000b0 ce 9b 6c 3d 37 75 37 bc 04 8e 66 3d 12 36 c0 3e
       0.057765774 -0.01119738 0.05628778 0.37541252
0000c0 fd 17 95 3e ed a2 a3 be cf 14 11 bf d1 5f 73 3e
       0.29119864 -0.3196024 -0.56672376 0.2376702
0000d0 c2 55 07 be 95 58 a0 be 12 c8 9a 3e 3c dc 50 be
       -0.13216308 -0.31317583 0.30230767 -0.20396513
0000e0 4e f3 31 be fb 28 18 be 6f a6 97 3e b0 ee 80 3e
       -0.1737797 -0.14859383 0.29619166 0.25182104
0000f0 ab 3f 25 be 0b 0d 1e 3e 25 52 63 bf 77 96 45 3e
       -0.16137569 0.15434663 -0.8879722 0.19295679
000100 52 93 5b 3d 68 c5 9d 3e 4f ce 92 3e db 5c b3 3d
       0.053607292 0.30814672 0.28673026 0.08757945
000110 8b 15 86 3d bb 7c ef 3c b9 81 f9 3e c9 63 bf bd
       0.06547078 0.02923428 0.48731783 -0.093452044
000120 78 83 eb 3d 51 51 00 bf 0a 93 aa be 89 20 e1 3d
       0.11499685 -0.5012408 -0.33315307 0.10992534
000130 1b 8d fc 3e 18 2e 91 be 0f 2c 69 3d 14 ba f2 be
       0.49326405 -0.2835548 0.056926783 -0.4740759
000140 78 87 cd 3d c6 bc 4c bd af b4 bb 3e 3e 9e 35 bd
       0.10035604 -0.049984716 0.36661288 -0.044340365
000150 48 0c 81 be cd 52 bb be 3d 2c 6f be 2e 0b 1e be
       -0.25204682 -0.3658661 -0.2335672 -0.15433952
000160 2b ef 19 3e 86 3b 2f 3d d5 fd 4c 3e 3c 1a bc 3c
       0.15032642 0.042781375 0.20018704 0.022961728
000170 94 f7 b1 3d 72 c4 47 be 82 31 a3 bd 71 e7 b0 bd
       0.086898 -0.19508532 -0.07968427 -0.08637894
000180 8d 57 e3 3d be e7 de be a6 cd 41 3e 3a c8 07 3e
       0.11100683 -0.4353618 0.18926105 0.13259974
000190 aa bc 27 3d af 26 33 3f ec ce 72 be 33 ee f4 bd
       0.04095141 0.699809 -0.23711747 -0.119594954
0001a0 85 ae 10 be b8 29 92 3d 1f bd 34 bf 09 73 ba bd
       -0.14129074 0.071368635 -0.70601076 -0.091039725
0001b0 54 ec c2 3e ac ee 56 3e 2d 7c e4 be 6d 1f 05 bf
       0.3807093 0.20989484 -0.4462599 -0.52001077
0001c0 08 a8 1e be 9f 86 b6 be 93 89 61 3e e2 50 96 bc
       -0.15493786 -0.35649583 0.22025137 -0.018349115
0001d0 c4 8d 03 3f 3e 3f 97 be b1 5b 13 3e da f2 08 3e
       0.5138819 -0.29540437 0.14390446 0.1337389
0001e0 ef 0e ee 3e ab 18 96 bd 58 8f 4a bf e8 45 c5 3d
       0.46495768 -0.07328924 -0.79124975 0.09632474
0001f0 88 ea ae 3e 73 ea 80 be f9 b2 74 bd 8c 09 90 3e
       0.34163308 -0.2517887 -0.059740994 0.28132284
000200 12 40 83 3c 70 dc 94 be f6 fc 5f bb 93 3f fb bd
       0.016021762 -0.2907443 -0.0034177876 -0.12267985
000210 bb f7 f6 3d 7f 50 74 be ba 22 dd 3e f2 a9 22 be
       0.120589696 -0.23858832 0.43190557 -0.15885141
000220 0a 68 38 3f 30 48 bb be e1 98 09 3f ad fb 5e be
       0.7203375 -0.36578512 0.537489 -0.21775694
000230 b2 92 85 be ee c2 40 3e 2c 88 43 3e ec ec e4 3e
       -0.26088482 0.1882436 0.19094914 0.44712007
000240 29 a9 4f 3e f8 ff d8 3d 87 07 d8 bd 75 ae de 3e
       0.20279373 0.10595697 -0.10548311 0.43492475
000250 27 8a dd 3d 26 30 b6 3e 8d 26 5f be d0 07 87 be
       0.10817366 0.3558361 -0.2179205 -0.26373148
000260 d6 c6 2e bf 00 7f 01 bf 78 e1 2c be 41 14 5e 3e
       -0.6827215 -0.5058441 -0.16882885 0.21687414
000270 5e a9 95 be 99 de 9d 3d 8b ba a0 bd 67 78 4c 3d
       -0.2923078 0.07708473 -0.0784808 0.049919512
000280 2f 14 2f be 56 e5 a9 3e e5 d6 69 3e a9 b9 04 be
       -0.17097543 0.33182782 0.22835882 -0.12961449
000290 2d 73 e9 be da 68 eb bd c8 6e d5 bc 96 28 91 be
       -0.45595685 -0.11494608 -0.026053801 -0.28351277
0002a0 18 3d 76 3e 97 95 17 3f 7d a9 76 3e d7 d9 c4 be
       0.24046743 0.5921263 0.24088092 -0.3844745
0002b0 07 fe 95 3e a9 d9 9f 3e e1 93 02 bf 3d 50 5a be
       0.2929537 0.3122075 -0.51006895 -0.21319671
0002c0 5c ef a2 3d 64 ea e8 3e d8 fa 2c be 9f ae b0 bd
       0.079558104 0.45491326 -0.16892564 -0.08627056
0002d0 e9 fd 2a 3e cf 85 4f 3e 00 87 ce bd 75 4d e6 3d
       0.16698422 0.20265888 -0.10084343 0.112452425
0002e0 97 4e 84 3f 03 92 10 be fc 74 0e be 71 26 0e bf
       1.0336484 -0.14118199 -0.13911813 -0.55527407
0002f0 9d 65 e0 bd 91 54 8b bc 71 fe 54 3e a6 04 15 bf
       -0.10956881 -0.017008098 0.20800187 -0.5821022
000300 31 d8 46 be b0 d2 2a bf 86 bb 2d 3f 45 3f d8 bb
       -0.19418408 -0.66727734 0.67864263 -0.006599339
000310 d1 3b 1f 3d f1 7e c5 be 50 a3 d4 3d 3a 86 e3 be
       0.038875405 -0.3857341 0.10382712 -0.44438344
000320 00 10 95 3d 4a f8 a9 3d 7c 78 bd 3c 57 92 52 3e
       0.072784424 0.082993105 0.02312874 0.20563637
000330 d5 54 9b 3c 5f f2 bd 3d 7e ce 4d bd 22 fa 03 3f
       0.01896135 0.09274744 -0.050245754 0.5155355
000340 52 39 f3 3e 63 da 80 be 82 73 ce be 37 00 ba bc
       0.4750467 -0.25166616 -0.403225 -0.02270518
000350 eb 02 5d be 0e 87 ad 3e 39 83 e7 3e d1 28 48 be
       -0.21583144 0.338921 0.45217302 -0.1954682
000360 73 ee c8 be d1 a1 43 be 03 81 39 3e 90 32 c1 3e
       -0.39244422 -0.19104697 0.1811562 0.3773389
000370 0a 90 e9 bd f7 fc 24 bb 5e 5c 03 3d 68 4c 7e bd
       -0.114044264 -0.0025175193 0.03207051 -0.062084585
000380 1d a8 88 be d8 32 b1 be 51 57 60 3e a4 4a 5d 3d
       -0.2669076 -0.34609103 0.21908309 0.05402626
000390 e0 cf 09 bd d8 4e 09 3f ad 3a bf bc 43 21 28 be
       -0.03364551 0.5363593 -0.023343408 -0.16418938
0003a0 e5 41 4d bf 72 4e ba bd a7 65 8b be 6b 1f e1 3e
       -0.8017867 -0.090969935 -0.27225992 0.43969283
0003b0 2d 22 0a 3e 5f 2a cb 3d a5 62 8f 3e c8 68 c4 3e
       0.134896 0.09920191 0.28004947 0.38361192
0003c0 86 7d b7 be a8 1a dd be bd 5e 12 be 9a 81 21 3f
       -0.35837954 -0.431844 -0.14293952 0.6308838
0003d0 31 e0 53 3e c6 58 0e 3d c9 19 0d be 47 8f e6 3e
       0.20690991 0.03475263 -0.13779368 0.45031187
0003e0 e9 06 9a 3c 99 ff c5 be 48 07 98 3d 78 1e 16 3c
       0.018802123 -0.38671568 0.07423264 0.009162538
0003f0 cd ce d0 3e 4f 2f 2c be 64 2e 1c 3e d8 4b 75 3d
       0.40782776 -0.16814922 0.15252072 0.059886783

network_body._body_endoder.seq_layers.0.bias f4 [128]
000000 b2 e7 4d 3b f6 40 9a 3b 92 ce 28 bb ee 16 78 bb
       0.0031418619 0.004707451 -0.002575789 -0.0037855464
000010 57 20 33 b9 f8 e7 8e 3b 9e fd 1e bb 89 88 7b bb
       -0.00017082818 0.004361149 -0.0024260054 -0.0038380942
000020 30 03 85 3b aa 49 01 39 ff 4e c0 ba 47 93 92 bb
       0.004059218 0.0001232984 -0.001467198 -0.0044731232
000030 4a 8a 8e bb f2 c4 a5 3b 1b cb 4e 3a 80 ff d0 bb
       -0.0043499814 0.005058878 0.00078885414 -0.006378114
000040 05 10 5a 3a c3 f3 ac bb 02 6e bb 3c d8 d6 3b 3b
       0.0008318427 -0.005278082 0.022879604 0.0028661992
000050 d1 4c e1 bb b6 9f 9a bb 02 ac 1e 3b 24 7a a2 ba
       -0.0068756123 -0.004718746 0.0024211411 -0.001239602
000060 2d 6e 71 ba 34 e1 b3 3b e0 c0 d6 3b 4f 3e bb 3a
       -0.0009209838 0.005489493 0.006553754 0.0014285537
000070 02 3a 4b 3a c9 95 8e bb 29 5d e7 b9 7a d2 bd bb
       0.0007752479 -0.004351352 -0.00044129163 -0.005792913
000080 52 a3 c7 bb df 6e 8f 3c 7d 48 b0 ba 48 65 01 bb
       -0.0060924673 0.017508922 -0.0013449338 -0.0019744206
000090 aa 73 21 3b 80 5a 55 bb 9f 2a 9d bb 3c 5a db bb
       0.0024635592 -0.0032555163 -0.0047963406 -0.0066941064
0000a0 34 cd 46 3c 6d d5 07 bc f9 f8 67 3b 5a 47 08 3b
       0.012133885 -0.008290631 0.0035396202 0.0020794482
0000b0 30 00 74 bb 28 6b 05 bc fa 31 e0 ba 17 54 0a 3c
       -0.0037231557 -0.008143224 -0.0017104738 0.0084429
0000c0 a5 16 9d bb 26 84 59 3b fc 4f 80 39 1b 9e cd bb
       -0.004793959 0.003319034 0.00024473656 -0.006274951
0000d0 c5 eb fb 3a 2f 03 d0 bb 8d b0 61 bb 2f 17 06 ba
       0.0019220045 -0.0063480358 -0.0034437508 -0.0005115149
0000e0 fa b1 08 bc eb 22 02 3c 26 fb ba bb 6e 49 3b ba
       -0.008343214 0.007942895 -0.0057062088 -0.0007144426
0000f0 3e 92 c4 bb b5 0a ea 3a 09 22 46 bb d2 2b d9 ba
       -0.0059988787 0.0017855974 -0.003023269 -0.0016568846
000100 e9 03 fd bb ec bb b7 3a 99 13 8c ba 93 aa 3c bb
       -0.0077214134 0.0014017797 -0.0010686993 -0.0028788194
000110 5d 04 cd ba 31 2b 50 bb b9 ab 10 bb 6a 08 10 ba
       -0.0015641559 -0.0031764025 -0.002207501 -0.0005494418
000120 d5 06 8e bb 4f 09 6b 3b b0 cd 45 3b 2a 4a a7 b8
       -0.0043343105 0.0035863703 0.0030182414 -7.976995e-05
000130 c8 b3 08 bb a4 5e 5d bb 6b 77 75 bb 86 21 d7 bb
       -0.002085911 -0.0033778334 -0.0037455212 -0.0065652756
000140 f7 44 44 3a 9f 4f 9b 3b ee 08 37 3b 25 7b 4c 3a
       0.0007487083 0.004739716 0.0027928906 0.00078003324
000150 15 75 36 3a 59 ca 2d 3b 8f 7f ba 3a 2c 73 25 bc
       0.00069601956 0.0026518314 0.0014228689 -0.01009826
000160 78 84 52 3b 28 c2 0d bb d1 da a1 bb 82 b1 c9 3a
       0.0032122415 -0.0021630619 -0.004939415 0.0015387984
000170 02 5c 95 ba c9 44 f0 b9 ad b9 52 bb 40 c6 2e 39
       -0.0011395218 -0.00045827616 -0.0032154128 0.00016667787
000180 35 34 35 3b fa d8 96 3a 95 52 e0 3b c1 d3 c6 b8
       0.0027649526 0.0011508756 0.006845782 -9.480818e-05
000190 2f a9 70 ba c9 2e da ba 6b 82 90 37 7b 52 26 3b
       -0.0009180484 -0.0016646023 1.7226868e-05 0.0025378752
0001a0 c8 51 33 bb 94 5e ef 39 48 5d c0 b7 41 b2 80 ba
       -0.0027361978 0.00045656099 -2.2931621e-05 -0.0009818749
0001b0 51 03 6c bb d0 ce be ba af cd 5b bc 49 24 2e 3b
       -0.003601272 -0.0014557485 -0.013415738 0.002657192
0001c0 7c 29 e3 bb 63 a8 e5 3a 67 bd e4 bb 9b 83 8a bb
       -0.0069324356 0.0017521497 -0.0069805863 -0.0042271144
0001d0 b5 8a ec ba 73 b3 dc bb 92 d3 d3 3a ea a9 8f bb
       -0.0018046709 -0.006735259 0.0016161075 -0.004384269
0001e0 19 d5 2f bc 19 65 20 bb ab 6f 87 ba a5 d5 1c bc
       -0.010731959 -0.0024474321 -0.0010332962 -0.009572421
0001f0 c6 c3 63 bb ee 65 9d bb 10 97 1d 3b ba 49 35 bc
       -0.0034754141 -0.0048034107 0.002404634 -0.011064941

network_body._body_endoder.seq_layers.2.weight f4 [128, 128]
000000 cc 14 d4 bc b4 a7 46 3d f5 1b 1f 3a 03 29 60 bc
       -0.025888823 0.048499778 0.00060695346 -0.013681653
000010 70 69 7e bd 66 2b 2c 3e ed 34 9b bd 82 5d 8b 3c
       -0.06211227 0.1681343 -0.07578454 0.017012361
000020 85 53 c0 3d b6 95 ec 3c 64 33 1d be 2e f1 98 3d
       0.0939093 0.028879981 -0.15351635 0.074678764
000030 64 43 25 3d b5 28 3f 3e dd c5 77 bd 33 cd 63 3d
       0.04034747 0.18667872 -0.06049143 0.055615615
000040 e1 c6 2c 3e 4b c9 b5 3d be 28 07 be a7 93 a4 bd
       0.16872741 0.08876284 -0.13199136 -0.08035975
000050 2d 57 74 3d 9f 94 85 3d ec 4c 75 3c 1a 7b 5f bc
       0.05965345 0.06522488 0.014971953 -0.01364019
000060 b7 cf 96 bd e9 a5 8c 3d 44 19 11 bd 27 31 f7 3c
       -0.07363837 0.06867582 -0.035424486 0.030174805
000070 1f 26 5e 3c 8e e9 0c bd 95 f4 ef 3b a6 cc 09 3e
       0.013558893 -0.034402423 0.0073228576 0.13456973
000080 39 42 15 3e 44 81 27 be ab ac 19 bd 47 23 03 bd
       0.14576043 -0.16357905 -0.037518185 -0.032016065
000090 c6 aa d4 3c a0 dd 9e bd b3 27 53 3d ba 8b 63 bd
       0.025960337 -0.07757115 0.051551532 -0.055553176
0000a0 bd 7f 8a bc 52 c3 03 bd b5 e9 21 3e 94 35 2f bd
       -0.016906613 -0.032168694 0.15811808 -0.042775705
0000b0 94 65 f7 bc 53 bb 0a 3d 6c 25 10 3c ec ec cf b8
       -0.030199803 0.033870053 0.008797985 -9.914659e-05
0000c0 7b dd 1c bd 8b 68 6d 3d 56 e5 85 bd 5b 91 d7 3d
       -0.038297158 0.057961028 -0.06537883 0.10525771
0000d0 71 85 7e bd ff 96 35 3d 09 e3 9b 3d cd 96 01 be
       -0.06213898 0.044333454 0.07611663 -0.12655182
0000e0 2a 30 10 be a8 a3 80 3d 6b 8c c9 3d 12 70 75 bd
       -0.14080873 0.06281215 0.09841236 -0.05992133
0000f0 f3 47 8a 3c 7c a2 2c be a1 09 0d 3d f5 5b cc bd
       0.016880011 -0.16858858 0.03443301 -0.09978477
000100 85 ad fc bd ec 65 4a 3d 24 85 90 3c ff 66 85 bc
       -0.12337784 0.049413607 0.017641611 -0.016284464
000110 72 b4 81 3d 21 87 3e bd 2a 9a 1f 3e ae f3 3e 3e
       0.06333245 -0.046515588 0.15586153 0.18647644
000120 99 1f 40 be 59 58 03 bd 5e b4 5c 3d 3a 7e c5 bc
       -0.18762054 -0.032066677 0.05388295 -0.024108041
000130 ad 8f f0 bd 02 eb f3 bc a6 25 e1 3d e0 16 f6 3d
       -0.11746154 -0.029775146 0.10993509 0.12016082
000140 1a 1a 60 3c b7 b2 da 3c dc 9b fe bd a1 7e 7a 3d
       0.013678098 0.026696546 -0.124320716 0.06115592
000150 0a 74 04 3e 39 2a a5 bd 77 8b 9c bd f5 63 21 3e
       0.1293489 -0.08064694 -0.07643788 0.15760787
000160 9c 42 4e bd 69 94 20 3e 13 5b 51 bd 44 a8 c3 bc
       -0.050356492 0.15681614 -0.051112246 -0.023883946
000170 fe b9 62 bd 0c c3 c2 bd ec 1c d3 bb 60 ff 9d bc
       -0.055353157 -0.095098585 -0.0064426567 -0.019286811
000180 d8 3f ba 3c 21 94 19 3d 29 3e 41 3d 14 39 38 3e
       0.022735521 0.037494782 0.04717842 0.17990524
000190 da 79 03 3a 2f 34 85 3c 63 d3 05 be fd 19 38 3d
       0.0005015411 0.016260235 -0.13068919 0.04494666
0001a0 b3 47 6e bd fa cc 03 3c 17 a8 14 bd f1 d8 e8 3d
       -0.058173846 0.008044476 -0.036293115 0.11369503
0001b0 49 c4 af 3c 0f 76 87 bd f9 85 8c bc 3d 0d a4 3c
       0.0214559 -0.06614315 -0.017153727 0.020025844
0001c0 fe 20 5a 3d 1c 80 07 bc b3 65 27 be 19 39 2b be
       0.05325412 -0.00827029 -0.16347389 -0.16721
0001d0 6c 5b c6 3d 09 0f d5 3d e2 48 92 3d c6 3e b4 3c
       0.09685406 0.10403258 0.071428075 0.022002589
0001e0 82 af b7 3d 32 f9 24 be 61 96 93 3d cc 6f d1 3d
       0.08969022 -0.16110685 0.07206417 0.10226402
0001f0 0e 53 7a bd b6 65 2e bd a4 16 1b bd 00 8e 18 3d
       -0.061114363 -0.042577468 -0.03786339 0.037244797
000200 2d d7 4f bc ec 6c f5 3c af e8 e7 bd 97 9a 7c 3d
       -0.012685579 0.029959165 -0.11323678 0.061670866
000210 c2 a9 3c 3d 66 36 42 bd a0 6e 1a ba 02 2f f2 bc
       0.04606033 -0.04741516 -0.0005891118 -0.02956343
000220 12 9c 12 bd a2 15 82 bb 91 1c 44 3d 53 02 12 bd
       -0.03579337 -0.003969864 0.047878806 -0.035646748
000230 97 61 73 3c 53 c8 67 bd 65 8f 80 bd 86 0a 04 3e
       0.01485481 -0.05658753 -0.0627735 0.1289464
000240 b6 d7 e1 3d 37 4e 7e bd 96 d5 dd bc 94 ff a1 bd
       0.11027472 -0.06208631 -0.027079385 -0.07910076
000250 11 28 05 be fa 2b 82 3a 78 33 f5 bd ee 9f 03 3b
       -0.13003565 0.0009931319 -0.119727075 0.002008434
000260 0f 74 b8 bd d6 3b 0e bd f4 42 4a 3c fb b5 3c 3d
       -0.090065114 -0.034725033 0.012345064 0.046071988
000270 14 f3 07 3e 5a a0 2f 3d 8f dc 0a be 5a fb 9f bd
       0.1327632 0.042877533 -0.13560699 -0.078116134
000280 8f 7e de bd 1a 6b c1 bd 09 5d 7b 3d b2 5b df 3c
       -0.10863983 -0.09444256 0.061368022 0.027265403
000290 6e 4d da bd ad da 9d 3d 0a fc 51 3e b5 3f 09 bc
       -0.106593 0.07707725 0.20506302 -0.008377005
0002a0 50 96 d0 bc 94 7c 12 3e 5e ee 0a 3c 73 c6 8b bd
       -0.0254623 0.14305335 0.008479683 -0.068249606
0002b0 90 d9 cd b9 32 21 4f 3d 89 86 e3 3a 9f 80 26 bc
       -0.00039262744 0.050568767 0.001735882 -0.010162502
0002c0 b1 fe b1 3d 8f 30 43 3e b5 bf 64 bd 11 8e 54 3d
       0.08691157 0.19061492 -0.05584689 0.051893298
0002d0 83 7a c2 bd 02 11 7f bd d5 b1 03 be bb 03 a6 3d
       -0.094960235 -0.06227208 -0.12860806 0.0810618
0002e0 09 c0 85 bd 2f 61 7b 3c 49 f2 12 bd dc 0a e8 bd
       -0.065307684 0.015342995 -0.035875592 -0.11330196
0002f0 d4 71 0e bd b4 36 87 3d b4 63 03 3e 35 0d 83 bd
       -0.034776524 0.06602231 0.12831002 -0.063990034
000300 13 26 aa bd 6d ad 24 bc c8 ec 49 bc 50 d1 3f 3e
       -0.08308043 -0.010051114 -0.012324519 0.1873219
000310 f7 8f 91 3d ee 4f 09 be 9d 9d ce 3c b4 99 82 bd
       0.07107537 -0.13409397 0.02522164 -0.06376973
000320 d3 04 82 3d 6e 2d c0 bd 86 e9 31 3d bf f3 8f bd
       0.063485764 -0.09383665 0.043435596 -0.07028913
000330 13 33 8e 3d cd 79 b6 bd 8a 08 46 3c 98 52 77 bd
       0.069433354 -0.089099504 0.012086997 -0.060381502
000340 06 46 d8 bd ae fa 28 be ef a0 dc 3c e3 5c 2b bd
       -0.10560231 -0.16501877 0.026932208 -0.04183663
000350 5e 7d 26 3e 8a 03 f5 bc 9c a1 97 bd 5f 59 18 3d
       0.16258761 -0.029908914 -0.074038714 0.037194606
000360 62 a5 3d bd 49 46 06 3a c0 1e b4 3d 19 59 14 3d
       -0.0463003 0.00051221676 0.087949276 0.036217783
000370 2a bc a2 3d 34 de eb bc a4 6d 5e 3d ad 86 ed 3d
       0.07946046 -0.028792478 0.05430378 0.11597953
000380 d7 13 b4 3d c0 86 af 3c 0a b7 2d bc 10 ca 35 bc
       0.08792847 0.021426558 -0.010602722 -0.011095539
000390 a8 5e a9 3c f9 e5 12 3e 0a 64 f6 3d ab 56 52 be
       0.020675018 0.1434554 0.120308 -0.20540874
0003a0 cd e1 59 bd e0 07 06 3d a5 9a c0 bd b7 f6 13 bc
       -0.053193856 0.032722354 -0.09404496 -0.009030989
0003b0 03 f1 08 3d f5 ec 57 bc e2 fb 7c 3b 4f bf 5d bd
       0.03343297 -0.013179054 0.0038602282 -0.054137524
0003c0 97 c0 37 3d f4 77 e6 bd c3 a9 4e bd 5d 58 27 3e
       0.044861402 -0.11253348 -0.050454866 0.16342302
0003d0 9e c0 87 bd 75 c3 65 3e cc bf 2f 3d 78 95 84 bc
       -0.06628536 0.22437842 0.04290752 -0.016184554
0003e0 c7 9b de 3d 2a 47 08 bd 9d 8a 9c b9 79 f4 23 3c
       0.10869556 -0.033270992 -0.00029857914 0.010007017
0003f0 13 05 e7 bd 13 15 78 3d 42 c9 98 3d 55 88 1e bd
       -0.11280265 0.060566973 0.07460262 -0.038704235

network_body._body_endoder.seq_layers.2.bias f4 [128]
000000 79 63 46 bb d9 b7 ce ba 30 46 1e bb 42 5c 82 3b
       -0.0030271693 -0.0015771344 -0.0024150722 0.003978283
000010 c5 23 d4 39 62 b0 98 bb f3 cb f5 ba 5a ca 5c ba
       0.0004046244 -0.0046596983 -0.0018752798 -0.0008422487
000020 a6 2e a2 b9 21 6d c1 3a 88 e0 0f 39 0f 32 24 bb
       -0.00030933804 0.0014757254 0.00013721187 -0.0025054251
000030 33 80 8e 3b fb 0b 82 ba 71 91 ba bb 42 2f 39 ba
       0.0043487786 -0.0009921783 -0.0056936075 -0.0007064232
000040 c2 82 4f ba 65 20 c2 3a c9 7b ab ba 9f 9b dc 3a
       -0.0007915908 0.001481068 -0.0013083155 0.0016831047
000050 0d 63 9d 3a e8 bb 1b ba d8 15 c6 ba 20 3e 21 b6
       0.0012007669 -0.0005940781 -0.0015112711 -2.402703e-06
000060 5c 83 8d ba dc 76 83 b8 fa 97 1a ba 82 91 0c 3b
       -0.0010796594 -6.268706e-05 -0.000589728 0.0021449034
000070 be be 30 bb 9c fa 11 bb a4 7c c9 39 85 38 8e bb
       -0.002696916 -0.002227462 0.00038430572 -0.0043402337
000080 de 22 31 3a 29 d9 d4 bb 71 e5 9e ba 61 82 ed ba
       0.000675721 -0.006495614 -0.0012122822 -0.0018120521
000090 4b fd 35 bb 15 54 31 3b e2 7b 9b bb ba 6f 92 ba
       -0.0027769383 0.0027058173 -0.0047449926 -0.0011172213
0000a0 f3 31 2c bb 27 65 47 bb 8e 36 8d bb ec ad 60 ba
       -0.002627489 -0.0030425282 -0.004309482 -0.0008570838
0000b0 dc 23 7e bb 4f 7b 5e bb 95 38 97 bb 6f f0 07 3a
       -0.0038778698 -0.003394801 -0.0046148994 0.00051856687
0000c0 4f 0a bd b9 d0 cd 79 ba bc 0f 35 bc 48 c4 07 bc
       -0.0003605657 -0.00095292646 -0.011051115 -0.008286543
0000d0 ea 52 99 39 77 55 b8 ba 5c 9d dc b9 c7 c9 97 bb
       0.0002924421 -0.0014063556 -0.00042078912 -0.004632208
0000e0 09 91 99 bb a0 dd f1 ba 0a 49 a5 39 a1 e3 17 bb
       -0.004686479 -0.001845289 0.0003152567 -0.002317645
0000f0 ca 7c 56 bb d1 5d 44 3b 47 1e 3f bb 99 db 71 bb
       -0.0032728189 0.0029963145 -0.0029162334 -0.0036904572
000100 ad fa 83 3b d6 95 41 3b 04 33 06 bb 1a e7 2e bb
       0.0040276856 0.0029538772 -0.0020477185 -0.002668804
000110 2a c7 42 3a 7c 37 d5 39 4b e3 58 bb e4 d2 5f bb
       0.00074301905 0.00040667865 -0.0033094462 -0.00341528
000120 33 69 fa ba 77 89 a7 bb 7b f9 b1 bb e7 f0 eb 39
       -0.0019104838 -0.0051128226 -0.0054313517 0.0004500218
000130 b1 e1 18 bb 6f d6 9a bb 9d 9f b3 ba f7 e6 d8 ba
       -0.0023327882 -0.0047252695 -0.0013704185 -0.0016548325
000140 b9 31 a0 bb e1 7f e3 3a 7b 47 47 bb 27 78 73 3a
       -0.00488874 0.0017356836 -0.0030407596 0.00092876184
000150 b0 32 aa bb ba 76 3d ba 57 46 06 bb bd cf 08 ba
       -0.0051940307 -0.00072274695 -0.0020488703 -0.00052189437
000160 a4 b8 3a ba 03 a4 a0 bb 2a 61 21 ba 22 e6 fa ba
       -0.00071228505 -0.004902364 -0.0006156141 -0.0019142071
000170 64 82 ae bb e4 40 87 ba 72 37 13 bc b3 20 d9 3a
       -0.0053256024 -0.0010319022 -0.008985387 0.0016565531
000180 4b ab d4 ba 40 2b 29 bb 8a 8d c4 bb f1 b6 bc ba
       -0.0016225366 -0.0025813133 -0.005998318 -0.0014397783
000190 f2 49 3d ba ca 51 0d bb 30 eb db 39 d7 d0 c7 3a
       -0.00072207965 -0.0021563643 0.00041946163 0.0015244734
0001a0 87 16 fd 39 e5 16 b0 bb 33 3c 40 bb d1 95 be bb
       0.00048272705 -0.005373823 -0.0029332757 -0.0058161994
0001b0 71 d4 00 3a fd 7a a4 bb 8b b9 70 bb e4 3b 47 bb
       0.0004914469 -0.005019544 -0.0036731686 -0.0030400688
0001c0 e5 1a 92 bb df be cb bb 07 0b 63 bb e0 88 37 bb
       -0.0044587725 -0.006217822 -0.0034644024 -0.0028005168
0001d0 bf b2 78 ba cf e7 cc bb af 3a b1 ba 65 9a 68 ba
       -0.00094870845 -0.0062532197 -0.0013521517 -0.0008873104
0001e0 53 1f 8a bb e2 36 cf ba 61 61 10 bc 1c 35 92 bb
       -0.00421516 -0.0015809203 -0.008812279 -0.0044618975
0001f0 f7 96 bb ba 67 cb 2d bb f7 10 2e bb cc 51 4b bb
       -0.0014311959 -0.0026518942 -0.0026560405 -0.0031024097

action_model._continuous_distribution.log_sigma f4 [1, 4]
000000 39 9b 2b bd 93 c6 e6 bc ae 65 dd bc 80 f3 9e bc
       -0.04189608 -0.02817086 -0.027026024 -0.01940322

action_model._continuous_distribution.mu.weight f4 [4, 128]
000000 78 22 82 bc 56 2b 53 bc 58 e4 dc bc 9e 5c 89 bb
       -0.015885577 -0.01288875 -0.026964352 -0.004191949
000010 c1 7d e9 ba e0 8e e0 bb 35 39 95 bb 23 99 8d bc
       -0.0017813967 -0.0068529695 -0.0045539388 -0.017284935
000020 4e 3c d5 3b 15 51 96 3c 96 c7 a2 3b d7 fa a6 bb
       0.006507433 0.01834921 0.00496764 -0.0050958204
000030 bb 6c 57 b9 45 7f 47 3c 94 4d 82 ba 2c fe 09 bd
       -0.00020544503 0.0121763395 -0.0009941333 -0.033689663
000040 9c d7 20 bb ac 4b e9 bc df d4 6e bc 3e 00 c4 3b
       -0.0024542576 -0.028478466 -0.01457712 0.005981474
000050 cf 07 02 3d 53 aa ae 39 f9 eb 0f ba 5d e5 3c bc
       0.031745728 0.00033314768 -0.000549018 -0.011529294
000060 46 af e0 bc 2c 9e e4 bb 32 21 8c bb 49 6c 2e 3c
       -0.027427327 -0.0069768634 -0.004276418 0.010645934
000070 42 a2 db bc bc 80 7a bc 7f 9f 22 3c f8 af 17 bb
       -0.026810769 -0.015289482 0.009925722 -0.0023145657
000080 9d 03 30 3c bd 24 3a 3c 95 ce bc bc 54 1e 55 bc
       0.010743049 0.011361298 -0.023047725 -0.013007719
000090 b5 77 93 3c 14 83 45 bc d4 bc 62 3b d5 34 31 bc
       0.018001417 -0.012055177 0.0034597414 -0.010815819
0000a0 8a 52 b9 bb 37 0d 22 3c 9b 1a 3f bc 38 58 1f bc
       -0.0056555914 0.009890846 -0.011664058 -0.009725623
0000b0 14 82 e7 3b 0b 09 91 3c 92 9f 3e bc b9 16 07 3c
       0.007065067 0.017704507 -0.011634724 0.008245164
0000c0 d0 aa 12 3c 3e aa 86 bc 2d 4a b2 3b 62 8a b7 bb
       0.008951858 -0.0164386 0.0054409713 -0.0056012133
0000d0 cb 06 0c 3d 57 b9 fb 3b 2a b3 db bb 68 73 12 bc
       0.034186166 0.0076820063 -0.0067047076 -0.008938648
0000e0 f9 c4 37 3c 64 05 22 3c 47 d2 fa bc fe bf 9a bb
       0.011216396 0.009888981 -0.030617846 -0.0047225943
0000f0 f6 e1 e5 bc bb 35 5d bc ca ce 36 3c e8 d4 35 bc
       -0.028061848 -0.01350158 0.011157701 -0.011098124
000100 1a f6 dd 3a 0f 71 a6 bc 47 98 74 3a 75 f1 d4 3c
       0.0016934306 -0.020317582 0.00093305524 0.025994042
000110 99 01 62 bd a5 bb 1f b9 51 c7 10 3c 5f a3 50 bc
       -0.055177305 -0.00015233325 0.008836583 -0.012734263
000120 ff e7 96 bc f7 72 21 39 78 b9 6a bc 4d 4b 81 bc
       -0.018421171 0.00015396984 -0.014326446 -0.015782977
000130 87 24 34 3b 13 05 09 bd 4d 89 46 bb 93 a3 be bc
       0.0027487592 -0.033452105 -0.003029424 -0.023271358
000140 eb 35 0e 3c d3 4e 6d 3c 6c d9 61 bc e3 ad 0b 3c
       0.008679847 0.014484125 -0.013784748 0.008525345
000150 05 82 3f bb ae 87 95 bb 06 33 8b 3c ef 64 81 3c
       -0.0029221785 -0.0045632934 0.016992103 0.0157952
000160 de e5 e9 37 9a 59 2b 3b 17 82 2d bc 8f cb 04 3c
       2.7882805e-05 0.0026145936 -0.010590098 0.008105173
000170 b5 ae 62 bb cd 8f ae b9 2c 2e 77 ba 79 65 bd 3c
       -0.0034588997 -0.00033295006 -0.00094291824 0.023119675
000180 d6 f1 b0 ba 84 dd 10 3b 0f f1 ba 3b b9 78 ac bc
       -0.0013499807 0.002210469 0.005705006 -0.021053659
000190 51 e3 80 bc ab 68 cf bc 86 c9 04 bc ae 74 64 3a
       -0.015733393 -0.025318464 -0.008104688 0.00087148964
0001a0 f9 80 8a 3c 53 30 76 bc 8c 98 22 3c 1e fa ca bb
       0.016907202 -0.01502617 0.009924065 -0.006194367
0001b0 88 d2 67 3c d4 03 34 bc 0a 9f bd 3a ca 51 24 3c
       0.014149316 -0.010987241 0.0014466953 0.010029266
0001c0 42 a3 57 bc fa 0a 7d bc c6 d0 47 3c f3 05 a5 bc
       -0.013161482 -0.015444512 0.012195772 -0.020144438
0001d0 d8 58 7e 3c 6e a1 d6 bc 31 6b a4 bc e1 0a 64 bc
       0.015524112 -0.026200023 -0.020070644 -0.013918609
0001e0 ff 1a e6 bb a1 80 7f bc 41 55 33 bc 13 d1 1e 3c
       -0.007022261 -0.015594632 -0.010945619 0.009693402
0001f0 f4 2a e8 3b 13 bc 84 3c 0c 15 a3 ba 6d 90 86 bc
       0.0070851985 0.016202962 -0.0012442186 -0.01642629
000200 11 0c 0c bc b7 bd a7 3c 6c 38 37 3c 27 e5 b4 3c
       -0.008547799 0.020476205 0.011182886 0.022081925
000210 e3 54 49 3c fb 05 99 3b 9b 17 d3 39 09 e5 0a bb
       0.012288305 0.0046699024 0.00040262644 -0.0021193644
000220 0b 05 87 3b 65 28 d0 3c 08 3a b2 3c 84 79 80 bb
       0.004120474 0.025409887 0.021756187 -0.003920736
000230 05 5b 06 bc 7c be 9a 3b 3f 76 f0 bc 26 d5 2a bc
       -0.008200412 0.0047224145 -0.02935326 -0.010426795
000240 c2 84 99 3a b2 ea f1 3c 63 51 34 bc 4a b4 9c 3a
       0.0011712539 0.029530857 -0.011005732 0.0011955586
000250 6f 54 14 3c 03 a6 c1 ba 1b 7f 46 3c 5a 9e 8e 3c
       0.009053334 -0.0014774207 0.012115265 0.017409492
000260 ae 70 1d bd d0 5d 27 3a e5 14 da bc ac 32 2b bd
       -0.038437538 0.00063845236 -0.026621291 -0.04179637
000270 52 ce 93 bc ae da f7 3c ec 41 83 bc a5 19 85 bc
       -0.018042717 0.030255642 -0.016022645 -0.01624758
000280 87 9f a8 3a 51 6f 51 3c c4 50 d4 3c d7 4a ad bc
       0.0012864926 0.012782888 0.025917418 -0.02115385
000290 0f 61 b5 bc 22 20 9b bc 50 48 ec bb 82 0d 57 3c
       -0.022141008 -0.01893622 -0.0072107688 0.013125779
0002a0 98 d4 36 3a c3 57 83 3b b0 e8 af bc 3b f5 9a 3c
       0.0006974428 0.0040082647 -0.021473259 0.018915763
0002b0 09 d2 62 bc 09 e6 02 bb 24 33 4f bc 90 04 8f 3c
       -0.013844022 -0.0019973537 -0.01264647 0.01745823
0002c0 64 65 8d bb 8b 0b 8e 3c 4a 93 a0 3b a0 63 07 3d
       -0.004315065 0.017339488 0.0049003707 0.033053994
0002d0 b7 85 97 3c 3e 96 05 3c ee 78 d4 bb 79 54 f8 bc
       0.018496377 0.008153496 -0.0064841425 -0.030313717
0002e0 63 74 69 3a 70 ed 20 3b 54 f9 31 bc 91 7e 99 3c
       0.00089055876 0.0024555586 -0.010862667 0.01873711
0002f0 76 2d a5 3b 75 c1 8b bc 06 ab eb bc e1 01 db 3c
       0.0050408198 -0.017060021 -0.028768074 0.026734294
000300 49 10 b8 bb d5 a7 0d 3c 26 3d b1 bc 0d ad 3d bc
       -0.0056171757 0.008645971 -0.021635603 -0.011576903
000310 7a f3 78 3b 62 8c 3c 3d 35 52 86 bc 85 33 92 3b
       0.003798692 0.046032317 -0.016396621 0.004461708
000320 b1 a1 f7 3b 64 55 b1 bb bb bb 30 3c 3f a3 2d bc
       0.007557117 -0.0054117907 0.010786946 -0.010598003
000330 1c ce 8b bc 76 4e 39 3a d8 bf 8d bc 77 33 a4 3c
       -0.017066054 0.00070688815 -0.017303392 0.020044072
000340 a0 15 96 bb b4 f4 95 3c 92 24 35 3b 25 8d a3 3c
       -0.0045802146 0.01830516 0.0027640206 0.019964764
000350 64 6c 1b 3b 1a 85 b2 bb c9 ef 9b bc 19 12 3b bc
       0.002371573 -0.005447996 -0.019035237 -0.011417889
000360 98 29 d2 3c 67 13 c9 bb 1b d9 e4 bb 08 49 95 bc
       0.0256546 -0.006136346 -0.006983889 -0.0182233
000370 ab 53 1f 3d d6 f1 72 bb ce 5e e3 3a 6a 60 60 3c
       0.03889815 -0.0037070415 0.001734698 0.013694862
000380 ff 8d 87 bb 1b 9a 97 3b 92 df 45 3c 58 5a 12 3c
       -0.0041368003 0.004626525 0.012077229 0.008932672
000390 cd 05 3a bc 54 77 8c 3c 60 66 f7 3c db f9 7f 3b
       -0.011353922 0.017146744 0.030200183 0.0039058838
0003a0 c7 37 56 bc 24 7c af bc b8 db 32 bc 61 e6 a0 3a
       -0.013074822 -0.0214215 -0.010916643 0.001227569
0003b0 c0 2f 16 3c 9e 35 c1 39 c2 3f 33 bc 09 3c 0a bd
       0.009166658 0.00036851777 -0.010940494 -0.03374866
0003c0 4d ca 9b bc 99 bf 95 3c bc 75 75 bc 37 79 c1 bc
       -0.019017363 0.018279837 -0.014981683 -0.02361737
0003d0 40 d8 b9 bb 36 14 c3 bc f8 3b 44 3b c9 59 66 bc
       -0.005671531 -0.023813348 0.002994297 -0.014059492
0003e0 a2 d0 86 bc ef 96 8f bc 27 32 fd bb 1e 79 d3 bc
       -0.016456906 -0.017528025 -0.007726926 -0.02581459
0003f0 47 71 c3 ba 91 36 b7 bc 2c a6 b3 3c 93 38 c8 bb
       -0.0014911079 -0.022364886 0.021929823 -0.00611026

action_model._continuous_distribution.mu.bias f4 [4]
000000 51 e6 1b 3b 13 ed 0a 3b bd 54 f9 3a 84 a8 d2 39
       0.0023788402 0.0021198436 0.0019022446 0.00040179875

action_model._discrete_distribution.branches.0.weight f4 [1, 128]
000000 ce ae 2c 3b 8a 23 6e bb 90 21 d4 bb 61 2c 1d bb
       0.002634931 -0.00363371 -0.0064737275 -0.002398275
000010 e8 4b 71 bc 31 bc bd 3b 6f 2b 22 3c 90 d5 12 bb
       -0.01472757 0.0057902564 0.009898051 -0.0022405125
000020 66 df b4 3b 67 23 08 3c ba 5f f2 3b d2 0a 11 bb
       0.005519795 0.008309222 0.0073966654 -0.0022131694
000030 d3 58 83 bc 42 09 4d bb 52 1d d7 bb f0 bb e9 3b
       -0.016033566 -0.0031286036 -0.0065647746 0.0071329996
000040 d3 cc 79 39 7d 8f 01 3c 94 5f 29 3c 8d 77 34 3b
       0.00023822793 0.007907745 0.010337729 0.0027537078
000050 7f dc 83 bb bb ea 2a ba 0a 79 c5 3b 3a e1 05 bc
       -0.004024088 -0.0006519963 0.006026392 -0.008171374
000060 af be 0b bc c6 99 a6 bb da 54 a3 bb c1 e2 07 bb
       -0.008529349 -0.005084249 -0.0049844803 -0.002073452
000070 35 49 f5 3a 00 1c 37 bc b2 26 ae bb cf df 1b ba
       0.0018713834 -0.011176109 -0.0053146714 -0.0005946131
000080 00 4e 48 bb fa 48 98 39 1f 76 2e 3c ab 8d dd bb
       -0.003056407 0.0002904607 0.010648279 -0.006761273
000090 b8 48 77 3c 6e 68 24 bb 03 3a 9a 37 f7 f1 9d 3b
       0.015093021 -0.002508666 1.8385244e-05 0.004820104
0000a0 3f c6 ff 3b 3a 96 f2 3b 34 b6 ab 39 e2 da 92 3a
       0.007805615 0.0074031623 0.00032751414 0.0011204148
0000b0 eb ae ca bb 7f 3f 3d 3a 54 61 3e 3c f3 bd fe bb
       -0.0061854026 0.00072192395 0.0116198845 -0.0077741086
0000c0 5f c9 bd bb 93 04 19 3c 3e 2c 33 3b 15 10 31 3c
       -0.0057918276 0.0093394695 0.0027339603 0.010807057
0000d0 2f 5a 45 bc ed 5e 95 3b 10 31 9c 3b 53 04 ca bb
       -0.012045427 0.004558435 0.004766591 -0.0061650663
0000e0 d8 21 58 bc b7 cf 95 bb 88 c0 ce ba 7a 79 e3 3b
       -0.013191663 -0.0045718807 -0.0015773932 0.0069419714
0000f0 62 53 62 3c 27 6d fa ba 41 e3 93 bb 27 42 7a bc
       0.013813825 -0.0019106016 -0.0045131748 -0.015274561
000100 cd ab 35 bc 3a 8b 29 bc 43 3d 0f bb 5b 34 12 3c
       -0.011088324 -0.010348136 -0.0021856583 0.008923615
000110 12 5e ae 3b 38 9f f0 ba 13 7d 71 3b 27 fc 2b bb
       0.0053212726 -0.0018357998 0.0036848232 -0.0026242824
000120 03 4f a0 3b ab 40 d6 3b 80 57 15 bc 9f 50 bb 3a
       0.0048922314 0.0065384707 -0.0091151 0.0014290995
000130 92 8c f8 ba 87 55 21 3b d0 11 69 39 c7 a8 18 bc
       -0.0018962792 0.0024617629 0.00022227247 -0.009317583
000140 83 8c 92 39 4a 43 f1 3b af 59 98 3c 73 e0 2f bc
       0.0002795198 0.007362758 0.018597452 -0.010734665
000150 3f 7f 00 3a 9e 01 8e 3c 4e 67 89 bb 9d ed fa bb
       0.00049017736 0.017334756 -0.004193223 -0.0076577202
000160 a8 01 62 3b 73 61 22 bc bf b7 ac bb 63 d0 c2 bb
       0.003448585 -0.009910929 -0.0052709277 -0.005945252
000170 42 c6 54 ba 71 47 39 bb af e7 4e 3b e6 1a 0e bc
       -0.0008116701 -0.0028271342 0.00315712 -0.008673405
000180 df a0 09 3c 37 c4 b8 3b 1b c3 0b 3b 80 b9 54 bb
       0.008400171 0.005638625 0.0021326009 -0.00324592
000190 df 16 82 bb db d0 6f bb 8c e1 9d ba d0 59 5b bc
       -0.0039700116 -0.0036592993 -0.0012045368 -0.013388112
0001a0 22 23 d6 3b e7 b1 10 3c 62 89 cc bb 20 a1 4b bc
       0.00653495 0.008831478 -0.0062419632 -0.012428552
0001b0 97 ba e1 bb 4b 6d 87 bc 73 95 c6 3a 3b 9d b6 bb
       -0.0068886983 -0.016531607 0.001515074 -0.0055729426
0001c0 5a c3 ab 3b 53 7f 28 bc 95 61 71 bc 9e 0f 8f ba
       0.0052417936 -0.010284263 -0.014732738 -0.0010914688
0001d0 e0 cc 4d ba 67 94 62 3b 76 a2 31 3b ea 1a 5f 3b
       -0.0007850658 0.0034573318 0.002710489 0.0034043142
0001e0 cb 62 42 3c 57 5e ef ba 94 78 84 ba f1 2b 47 3a
       0.011864374 -0.0018262368 -0.0010106736 0.00075977953
0001f0 b7 aa 17 3c ef d3 98 bb df 07 50 3c 88 69 65 3c
       0.00925701 -0.0046639363 0.012697189 0.014002211
